my_model.tflite (tflite, 156956 bytes, 13 tensors)

sequential/lstm/Read_2/ReadVariableOp f4 [256]
00000000: 9a91 afbd 06ad 413d 9c35 38be 5fde 93bc
00000010: 04c3 fabc 782e 9abd dcad 66bd 7cd7 b33d
00000020: 1a67 ffbc 6207 9abd 35b6 73be 1bbe 7bbd
00000030: dd38 89bd c0be 70bd 628b 1cbe 6ba2 e1bd
00000040: 8b7d 853d 1dd5 19bd ec91 adbd c98c 39bd
00000050: 54df e1bc 0c13 00be 12eb 9dbc 0ea2 d2bd
00000060: 753f 16bc 60be 01be b512 b3bc 72f2 b5bd
00000070: 1b3a f1bd 1ded 613c 4a0f 23bd dcb9 b4bd
00000080: 492a 2bbe 1ac6 a8bc 2812 98bd ea52 6abd
00000090: f510 e0bd 75ca 373d 15fc d5bc a568 f0bb
000000a0: 439e ebbd c430 16be ad52 ac3c 6dc8 2e3d
000000b0: aeeb dbbd a04d d2bd 6b1e e2bd 52c0 983e
000000c0: 297f 523d 1ae3 a9ba 2923 c9bd a81e 043d
000000d0: 850f d93d f66f 26bc 3437 1dbe 4195 3ebe
000000e0: ac9c 7cbd 6870 9bbd 760e 7c3a 21bf 99bd
000000f0: 4ee8 4a3b de4f f0bd d5bb cf3c 2d56 8abc
00000100: 9093 7f3f 134a 8e3f 7c20 5d3f d4aa 8b3f
00000110: 8140 903f 2fcb 823f 0184 903f ae2f 7a3f
00000120: 00f3 8e3f 62f1 733f db1f 683f 60f2 803f
00000130: 9766 893f f64e 803f da34 683f 0f97 873f
00000140: 1ec4 8b3f 2e42 6b3f 6d87 753f 0b36 8f3f
00000150: 0811 723f 2d7b 823f fb5f 883f 697b 693f
00000160: 976d 873f 58ae 723f 0e2e 8c3f ebe3 7e3f
00000170: 2f59 7f3f 7218 673f c808 793f 9211 7d3f
00000180: d150 763f c60c 8d3f f032 6e3f f71e 8a3f
00000190: 29af 6e3f bc61 7a3f ba0b 643f fe13 793f
000001a0: 86d1 803f a31f 6b3f 1f16 7d3f 2195 7d3f
000001b0: d2f9 863f 372e 563f 22ec 733f ba03 883f
000001c0: 35fb 6e3f a58a 823f df7c 703f b444 723f
000001d0: f154 773f 5f6b 873f de7c 7b3f 84b2 6c3f
000001e0: bd4e 853f fa54 733f d9e1 8c3f 80db 5e3f
000001f0: d7c0 5f3f 2060 843f 9aa0 893f aad4 7c3f
00000200: 68f3 a13c cfd7 f0bd 7304 bc3c 141f 483d
00000210: d6a9 81bd 0f45 663d 50ba 63bd a523 653d
00000220: 6e89 22bd 1b14 dbbd 9146 fdbc a9ea 34bd
00000230: 7279 5d3d 5d28 243d da43 eb3c e041 003d
00000240: bb4c 683d 7379 cdbb 6017 11bd 8258 5a3d
00000250: 8bc7 dfbc 0ac1 453d 407a 5bbc b723 64bd
00000260: 5b17 2b3c 8e78 8c3d df30 8bbd f5a6 8a3d
00000270: 61c2 9c3d ad15 d7bb 6287 36bd 814c 65bc
00000280: cf58 69bd 216b 243d eaed 783d 40db 2bbd
00000290: dde2 debc 5708 cbbb 1d9c f13c c2d4 d33c
000002a0: d0a4 34bd 39ef 33bd e7e1 523d 12e6 db3c
000002b0: 6a5a b73d f82b 893c ed7a a43c d56f 4aba
000002c0: 381f 90bc 1ae0 62bd d05a 3dbd 0386 0a3d
000002d0: 875d 6b3b cf7f 223d 6de3 0fbe 70f4 8abd
000002e0: fe50 a8bc fa41 843d 876d 23bc 353d 38bd
000002f0: 12f8 1c3c 7648 6a3d 58b6 f4bc bb03 a73d
00000300: 70d7 a8bd 1561 7e3d f7a0 26be 5e26 52bd
00000310: afc5 153d 9f3d c0bd 2eb9 99bc e6f7 8e3a
00000320: 3dc8 bbbc aa50 9b3c 7b08 35be 0ee9 81bd
00000330: 7eca 36bd 49ad 05bc 671b d1bd 1ed1 64bd
00000340: 501d ab3d e91d 5abc 39ce afbd 3cf4 153d
00000350: 871e 883d 036a 88bd 7f6a a53b c711 30bd
00000360: 2800 f13b 640b 82ba 868c 9a3d 598d 8ebd
00000370: 74ee 85bd 08eb d23d ecbb 51bd 1f9c 78bd
00000380: 1b88 cebd cc45 32bd bd12 18bd cfc7 b8bc
00000390: 0c61 24bd 7415 a43d 3ef0 bd3c 39b4 8abc
000003a0: de78 efbc 5b46 09be c471 85bc 2ffc 6f3d
000003b0: 1be5 c6bd 424a 0ebd 0160 c5bd e914 873e
000003c0: 0208 a93d fbc0 a6bc f05a c8bd 37a7 123d
000003d0: c33f b03d 7495 8b3c ce50 19bd ab17 c2bd
000003e0: 50b9 ddbc cad5 4a3d f7c2 efbc 2d0c 06bd
000003f0: 9378 d23c 2294 38bd 5dfe a73c 9c6c c83d
-0.08572693 0.04728415 -0.179892 -0.01805037 -0.030610569 -0.075283945 -0.05631815 0.08781335
-0.031177092 -0.075209394 -0.23799975 -0.061460596 -0.06700299 -0.058775663 -0.15287545 -0.11017307
0.06518086 -0.037556756 -0.08475098 -0.04530028 -0.027572311 -0.12507266 -0.01927713 -0.10284816
-0.009170403 -0.12670279 -0.021859506 -0.088841334 -0.11778661 0.013789442 -0.039809503 -0.08824512
-0.1671535 -0.020602275 -0.07425338 -0.05720798 -0.10940734 0.044870812 -0.026121179 -0.0073366934
-0.115047954 -0.1466704 0.021035517 0.04267161 -0.10738312 -0.10268712 -0.11040958 0.2983423
0.0513908 -0.0012961358 -0.098211594 0.0322558 0.10598663 -0.0101585295 -0.1535309 -0.18611623
-0.06167285 -0.07589799 0.0009615192 -0.07507158 0.0030961218 -0.117339835 0.02535812 -0.016886795
0.9983454 1.1116356 0.8637769 1.0911508 1.1269685 1.0218257 1.1290284 0.97729003
1.1167908 0.95290196 0.9067361 1.0073967 1.0734433 1.0024097 0.90705645 1.0592974
1.0919225 0.9189786 0.9590977 1.1188368 0.9455724 1.019384 1.0654291 0.91203934
1.0580319 0.9479728 1.0951555 0.99566525 0.9974546 0.90271676 0.97279024 0.98854935
0.96217066 1.1019523 0.93046474 1.07907 0.93236023 0.9780538 0.89080393 0.9729613
1.0063941 0.9184515 0.9886188 0.9905568 1.0544989 0.8366427 0.95282185 1.0626137
0.9335206 1.0198561 0.9394054 0.9463608 0.96613985 1.0579642 0.9823741 0.92459893
1.0414654 0.9505154 1.1006423 0.8705368 0.87403625 1.0341835 1.0752137 0.98762
0.019769385 -0.11759912 0.02295134 0.048857763 -0.06331222 0.056218203 -0.055597603 0.055942196
-0.039681844 -0.10697194 -0.030917438 -0.044169102 0.054070897 0.040077556 0.028718878 0.031312823
0.0567138 -0.0062705814 -0.035422683 0.053307064 -0.02731683 0.0482798 -0.013395846 -0.055698123
0.01044258 0.068589315 -0.06796431 0.06770126 0.07654262 -0.0065638633 -0.044562705 -0.013995291
-0.05696946 0.04014123 0.060773768 -0.04195714 -0.027207786 -0.0061960625 0.029493386 0.025858287
-0.04410249 -0.043929312 0.05148497 0.026843105 0.08952792 0.016744599 0.020078147 -0.0007722353
-0.017593011 -0.0553895 -0.046229184 0.03381921 0.00359139 0.03967267 -0.140516 -0.06784904
-0.020546433 0.064578965 -0.009974844 -0.044980247 0.009580629 0.05719801 -0.029872105 0.081550084
-0.082442164 0.062104303 -0.1627234 -0.05130612 0.03656548 -0.09386753 -0.018765058 0.001090762
-0.02292263 0.018959362 -0.17679016 -0.0634328 -0.044626705 -0.00815899 -0.10210305 -0.055863492
0.083552 -0.013312795 -0.08584256 0.036609873 0.06646448 -0.06660845 0.0050480957 -0.042985704
0.007354755 -0.0009921608 0.07546334 -0.06960554 -0.06539622 0.10298735 -0.051204607 -0.060695764
-0.10084554 -0.043523595 -0.037127245 -0.022556214 -0.040131614 0.08011904 0.023185845 -0.01693164
-0.029232439 -0.13405745 -0.0162896 0.05859011 -0.09711667 -0.034738787 -0.09637452 0.2638314
0.082534805 -0.020355692 -0.0978297 0.035804 0.086059116 0.017039038 -0.037430577 -0.094771706
-0.027065903 0.04952029 -0.029267771 -0.032726455 0.02569226 -0.045063145 0.020507032 0.097863406

sequential/lstm_2/Read_2/ReadVariableOp f4 [64]
00000000: 4a1c ac3d cf34 c23e 45ec c93e 2edb 4d3e
00000010: 7748 1f3e d2d1 993e 03d6 a23e 388f b93e
00000020: fd96 553e be4b 9f3e 9ec9 0f3e 9782 5b3e
00000030: cebc 553c face be3e 934a 1f3f 7c6e e73e
00000040: 6d5d 853f 331c 853f ed8f 613f 07be 893f
00000050: 1b47 823f 0318 883f bc64 813f c118 763f
00000060: 7b78 883f eb57 833f 9842 893f 5ad0 863f
00000070: ab13 843f 6e58 743f 3458 4d3f b277 753f
00000080: 51bf 4abd 4d50 b1bc 8165 973c 43c2 a3bc
00000090: e406 18b9 5f63 b53b c6bf a03d 4d4d 9bbb
000000a0: 9bd1 a03c 3c64 863c 9628 283c ed0b 813c
000000b0: 3ea7 89bd 50e4 ebba 19ca 153c 6e12 8cbc
000000c0: a02e 013e 65a2 ab3e 9d17 cf3e 7d0c fa3c
000000d0: aeaf 943e 81b6 873e aa27 a73e 63b9 053f
000000e0: e9c6 8d3e f3da d93e ceed 513e 7b2a 973e
000000f0: 23ba aa3c 3234 053f 95aa 353f 236d 0d3f
0.08403833 0.37930915 0.39438072 0.20103142 0.15554987 0.30042893 0.31803903 0.3624208
0.20858379 0.31112474 0.14041755 0.21436535 0.013045503 0.37267286 0.62223166 0.4520148
1.0419136 1.0399231 0.8811024 1.0761117 1.017795 1.0632328 1.0108867 0.9613152
1.0661768 1.0261205 1.0723448 1.0532334 1.0318502 0.95447433 0.8021271 0.95885766
-0.04949886 -0.021644736 0.018481018 -0.019990092 -0.00014498417 0.0055355276 0.07849078 -0.0047394396
0.019631198 0.016405217 0.010263583 0.015752757 -0.06721352 -0.001799712 0.009142422 -0.017098632
0.12615442 0.33522335 0.40447703 0.030523533 0.29040283 0.26506427 0.3264745 0.52236
0.2769082 0.42549857 0.20500872 0.29524598 0.02084071 0.5203277 0.7096341 0.55244654

sequential/lstm_1/Read_2/ReadVariableOp f4 [128]
00000000: 0f63 743e dd87 a9bc f7c2 eb3e 170d 0c3e
00000010: 07db 823e 98c3 553d b8ff df3c b630 a4bd
00000020: aa3d babd 053f a53e e266 4ebd 867f 5abd
00000030: 90af aebd d2fe e43b 4f5e 8dbd 2e2b 8e3e
00000040: 3751 ed3d e6fb 9c3c e7b7 533e f8ce 253e
00000050: 64ef c13d 6803 e6bc e40f 293e 2180 8abd
00000060: 9cfe 873d e0a1 233c 3c6b 4abd 2b36 da3c
00000070: e65c 973e 4dcd 613c fd1f cb3c 2fc3 ce3c
00000080: f8a8 823f b879 873f 473a 3e3f 3c90 843f
00000090: fbf8 913f e260 803f eee1 8b3f efbb 853f
000000a0: 9c1e 7a3f 5b1f 813f 3bba 7d3f 61fe 713f
000000b0: 33d5 853f 829a a23f b54e 813f 9323 893f
000000c0: 089d 883f 0c05 823f da95 803f 8d14 7e3f
000000d0: f003 803f caa8 803f 395e 903f df3f 893f
000000e0: 580f 823f 012a 683f 72c5 843f 9633 8e3f
000000f0: fff8 643f 67ab 823f 08cb 7c3f fc44 763f
00000100: bb29 833d 866d 34bd 1b43 933d 5c55 883a
00000110: a7a6 fd3c 513a 4a3d 05b4 acb9 c674 8f3c
00000120: dbe3 79bd 67b9 ba3c 12f9 3abd c444 3d3c
00000130: f127 86bd 5dac fabc 9b30 163d 4ee1 d93c
00000140: 25df 373d 1ace 16bd 0fd7 ba3c 5584 033d
00000150: 0942 633d ca82 75ba 9401 263e d7d4 3c3d
00000160: dd7e 92bc 487f 69bd 3e54 c73d 0901 a13d
00000170: 5fae 1c3b 7c62 163c da91 f4bc 50b1 8abb
00000180: 58e6 413e c709 4f3d e21f d73e 5b08 da3d
00000190: 94fa 5e3e 63e9 37bc 481e 0dbc fa22 df3c
000001a0: 041b 6fbd 4c18 9c3e 8ca6 aebc 0d78 afbc
000001b0: 125e 6bbb 7a52 373e 3027 69bb d116 763e
000001c0: 8e82 6c3d 862b ab3d fb65 6c3e 19bc 833e
000001d0: c175 753d 5872 16bc 2af7 a53d 2b33 aa3d
000001e0: a9e5 443d 3f85 00bd fd24 d33d 48fc 0b3e
000001f0: 7cd7 9c3e 2427 5d3d 67aa 94bb 3456 67bd
0.23865913 -0.020694667 0.46047184 0.13676868 0.2555773 0.052188486 0.027343616 -0.080171034
-0.09093793 0.32274643 -0.050391085 -0.053344272 -0.0852958 0.0069883848 -0.069027536 0.27767318
0.11587756 0.019163083 0.20675622 0.16192234 0.09469488 -0.028077796 0.16509968 -0.0676272
0.0664036 0.0099873245 -0.049418673 0.026637157 0.29563063 0.013781858 0.024795527 0.025239555
1.0207815 1.0584021 0.74307674 1.0356517 1.1404108 1.0029566 1.0928323 1.0447978
0.97702956 1.0087694 0.9911229 0.94528776 1.0455688 1.2703402 1.0102144 1.0713981
1.0672922 1.015779 1.0045731 0.9925011 1.0001202 1.005151 1.1278754 1.0722617
1.0160933 0.9068909 1.0372756 1.1109493 0.8944244 1.0208558 0.987473 0.9619901
0.06404444 -0.044049762 0.07190534 0.0010401416 0.030963255 0.04937202 -0.00032940521 0.017511737
-0.061008316 0.022793485 -0.04564769 0.0115520395 -0.06550587 -0.030599767 0.036667448 0.026596691
0.04489054 -0.036817648 0.022807626 0.032108624 0.055482898 -0.00093654974 0.1621154 0.046101417
-0.017882759 -0.05700615 0.09732865 0.078615256 0.0023907644 0.009178754 -0.029854704 -0.004232563
0.18935525 0.050546434 0.42016512 0.10646125 0.21775275 -0.011225077 -0.008613177 0.027238358
-0.058375373 0.30487287 -0.02131965 -0.02141955 -0.0035914225 0.17902556 -0.0035576336 0.24032141
0.057741694 0.08357911 0.23085777 0.25729445 0.059926752 -0.009182535 0.081037834 0.08310541
0.048070583 -0.031377073 0.10309789 0.13670456 0.30633152 0.053992406 -0.004536915 -0.056478694

sequential/dense/MatMul f4 [1, 16]
00000000: 679f 923e c205 60bf eece 44bf 6dbf d0bd
00000010: 454b 453f f3e4 6abf 6959 3cbf 723e 823f
00000020: 875d 46bf f5a0 27bf 9277 c93e dbc8 21bf
00000030: ed62 f03e 9059 56bf b908 b93f a746 733f
0.2863724 -0.87508786 -0.7687825 -0.101927616 0.7706798 -0.917556 -0.7357393 1.0175307
-0.7748646 -0.65479976 0.39349037 -0.63197106 0.46950474 -0.8373041 1.4455787 0.9502968

sequential/lstm/Read_2/ReadVariableOp1 f4 [256]
00000000: 9a91 afbd 06ad 413d 9c35 38be 5fde 93bc
00000010: 04c3 fabc 782e 9abd dcad 66bd 7cd7 b33d
00000020: 1a67 ffbc 6207 9abd 35b6 73be 1bbe 7bbd
00000030: dd38 89bd c0be 70bd 628b 1cbe 6ba2 e1bd
00000040: 8b7d 853d 1dd5 19bd ec91 adbd c98c 39bd
00000050: 54df e1bc 0c13 00be 12eb 9dbc 0ea2 d2bd
00000060: 753f 16bc 60be 01be b512 b3bc 72f2 b5bd
00000070: 1b3a f1bd 1ded 613c 4a0f 23bd dcb9 b4bd
00000080: 492a 2bbe 1ac6 a8bc 2812 98bd ea52 6abd
00000090: f510 e0bd 75ca 373d 15fc d5bc a568 f0bb
000000a0: 439e ebbd c430 16be ad52 ac3c 6dc8 2e3d
000000b0: aeeb dbbd a04d d2bd 6b1e e2bd 52c0 983e
000000c0: 297f 523d 1ae3 a9ba 2923 c9bd a81e 043d
000000d0: 850f d93d f66f 26bc 3437 1dbe 4195 3ebe
000000e0: ac9c 7cbd 6870 9bbd 760e 7c3a 21bf 99bd
000000f0: 4ee8 4a3b de4f f0bd d5bb cf3c 2d56 8abc
00000100: 9093 7f3f 134a 8e3f 7c20 5d3f d4aa 8b3f
00000110: 8140 903f 2fcb 823f 0184 903f ae2f 7a3f
00000120: 00f3 8e3f 62f1 733f db1f 683f 60f2 803f
00000130: 9766 893f f64e 803f da34 683f 0f97 873f
00000140: 1ec4 8b3f 2e42 6b3f 6d87 753f 0b36 8f3f
00000150: 0811 723f 2d7b 823f fb5f 883f 697b 693f
00000160: 976d 873f 58ae 723f 0e2e 8c3f ebe3 7e3f
00000170: 2f59 7f3f 7218 673f c808 793f 9211 7d3f
00000180: d150 763f c60c 8d3f f032 6e3f f71e 8a3f
00000190: 29af 6e3f bc61 7a3f ba0b 643f fe13 793f
000001a0: 86d1 803f a31f 6b3f 1f16 7d3f 2195 7d3f
000001b0: d2f9 863f 372e 563f 22ec 733f ba03 883f
000001c0: 35fb 6e3f a58a 823f df7c 703f b444 723f
000001d0: f154 773f 5f6b 873f de7c 7b3f 84b2 6c3f
000001e0: bd4e 853f fa54 733f d9e1 8c3f 80db 5e3f
000001f0: d7c0 5f3f 2060 843f 9aa0 893f aad4 7c3f
00000200: 68f3 a13c cfd7 f0bd 7304 bc3c 141f 483d
00000210: d6a9 81bd 0f45 663d 50ba 63bd a523 653d
00000220: 6e89 22bd 1b14 dbbd 9146 fdbc a9ea 34bd
00000230: 7279 5d3d 5d28 243d da43 eb3c e041 003d
00000240: bb4c 683d 7379 cdbb 6017 11bd 8258 5a3d
00000250: 8bc7 dfbc 0ac1 453d 407a 5bbc b723 64bd
00000260: 5b17 2b3c 8e78 8c3d df30 8bbd f5a6 8a3d
00000270: 61c2 9c3d ad15 d7bb 6287 36bd 814c 65bc
00000280: cf58 69bd 216b 243d eaed 783d 40db 2bbd
00000290: dde2 debc 5708 cbbb 1d9c f13c c2d4 d33c
000002a0: d0a4 34bd 39ef 33bd e7e1 523d 12e6 db3c
000002b0: 6a5a b73d f82b 893c ed7a a43c d56f 4aba
000002c0: 381f 90bc 1ae0 62bd d05a 3dbd 0386 0a3d
000002d0: 875d 6b3b cf7f 223d 6de3 0fbe 70f4 8abd
000002e0: fe50 a8bc fa41 843d 876d 23bc 353d 38bd
000002f0: 12f8 1c3c 7648 6a3d 58b6 f4bc bb03 a73d
00000300: 70d7 a8bd 1561 7e3d f7a0 26be 5e26 52bd
00000310: afc5 153d 9f3d c0bd 2eb9 99bc e6f7 8e3a
00000320: 3dc8 bbbc aa50 9b3c 7b08 35be 0ee9 81bd
00000330: 7eca 36bd 49ad 05bc 671b d1bd 1ed1 64bd
00000340: 501d ab3d e91d 5abc 39ce afbd 3cf4 153d
00000350: 871e 883d 036a 88bd 7f6a a53b c711 30bd
00000360: 2800 f13b 640b 82ba 868c 9a3d 598d 8ebd
00000370: 74ee 85bd 08eb d23d ecbb 51bd 1f9c 78bd
00000380: 1b88 cebd cc45 32bd bd12 18bd cfc7 b8bc
00000390: 0c61 24bd 7415 a43d 3ef0 bd3c 39b4 8abc
000003a0: de78 efbc 5b46 09be c471 85bc 2ffc 6f3d
000003b0: 1be5 c6bd 424a 0ebd 0160 c5bd e914 873e
000003c0: 0208 a93d fbc0 a6bc f05a c8bd 37a7 123d
000003d0: c33f b03d 7495 8b3c ce50 19bd ab17 c2bd
000003e0: 50b9 ddbc cad5 4a3d f7c2 efbc 2d0c 06bd
000003f0: 9378 d23c 2294 38bd 5dfe a73c 9c6c c83d
-0.08572693 0.04728415 -0.179892 -0.01805037 -0.030610569 -0.075283945 -0.05631815 0.08781335
-0.031177092 -0.075209394 -0.23799975 -0.061460596 -0.06700299 -0.058775663 -0.15287545 -0.11017307
0.06518086 -0.037556756 -0.08475098 -0.04530028 -0.027572311 -0.12507266 -0.01927713 -0.10284816
-0.009170403 -0.12670279 -0.021859506 -0.088841334 -0.11778661 0.013789442 -0.039809503 -0.08824512
-0.1671535 -0.020602275 -0.07425338 -0.05720798 -0.10940734 0.044870812 -0.026121179 -0.0073366934
-0.115047954 -0.1466704 0.021035517 0.04267161 -0.10738312 -0.10268712 -0.11040958 0.2983423
0.0513908 -0.0012961358 -0.098211594 0.0322558 0.10598663 -0.0101585295 -0.1535309 -0.18611623
-0.06167285 -0.07589799 0.0009615192 -0.07507158 0.0030961218 -0.117339835 0.02535812 -0.016886795
0.9983454 1.1116356 0.8637769 1.0911508 1.1269685 1.0218257 1.1290284 0.97729003
1.1167908 0.95290196 0.9067361 1.0073967 1.0734433 1.0024097 0.90705645 1.0592974
1.0919225 0.9189786 0.9590977 1.1188368 0.9455724 1.019384 1.0654291 0.91203934
1.0580319 0.9479728 1.0951555 0.99566525 0.9974546 0.90271676 0.97279024 0.98854935
0.96217066 1.1019523 0.93046474 1.07907 0.93236023 0.9780538 0.89080393 0.9729613
1.0063941 0.9184515 0.9886188 0.9905568 1.0544989 0.8366427 0.95282185 1.0626137
0.9335206 1.0198561 0.9394054 0.9463608 0.96613985 1.0579642 0.9823741 0.92459893
1.0414654 0.9505154 1.1006423 0.8705368 0.87403625 1.0341835 1.0752137 0.98762
0.019769385 -0.11759912 0.02295134 0.048857763 -0.06331222 0.056218203 -0.055597603 0.055942196
-0.039681844 -0.10697194 -0.030917438 -0.044169102 0.054070897 0.040077556 0.028718878 0.031312823
0.0567138 -0.0062705814 -0.035422683 0.053307064 -0.02731683 0.0482798 -0.013395846 -0.055698123
0.01044258 0.068589315 -0.06796431 0.06770126 0.07654262 -0.0065638633 -0.044562705 -0.013995291
-0.05696946 0.04014123 0.060773768 -0.04195714 -0.027207786 -0.0061960625 0.029493386 0.025858287
-0.04410249 -0.043929312 0.05148497 0.026843105 0.08952792 0.016744599 0.020078147 -0.0007722353
-0.017593011 -0.0553895 -0.046229184 0.03381921 0.00359139 0.03967267 -0.140516 -0.06784904
-0.020546433 0.064578965 -0.009974844 -0.044980247 0.009580629 0.05719801 -0.029872105 0.081550084
-0.082442164 0.062104303 -0.1627234 -0.05130612 0.03656548 -0.09386753 -0.018765058 0.001090762
-0.02292263 0.018959362 -0.17679016 -0.0634328 -0.044626705 -0.00815899 -0.10210305 -0.055863492
0.083552 -0.013312795 -0.08584256 0.036609873 0.06646448 -0.06660845 0.0050480957 -0.042985704
0.007354755 -0.0009921608 0.07546334 -0.06960554 -0.06539622 0.10298735 -0.051204607 -0.060695764
-0.10084554 -0.043523595 -0.037127245 -0.022556214 -0.040131614 0.08011904 0.023185845 -0.01693164
-0.029232439 -0.13405745 -0.0162896 0.05859011 -0.09711667 -0.034738787 -0.09637452 0.2638314
0.082534805 -0.020355692 -0.0978297 0.035804 0.086059116 0.017039038 -0.037430577 -0.094771706
-0.027065903 0.04952029 -0.029267771 -0.032726455 0.02569226 -0.045063145 0.020507032 0.097863406

while/MatMul_11 f4 [256, 64]
00000000: 7ee9 963c 6995 f7bd a53c 6d3c 05e5 46be
00000010: 087c 7f3d 5652 a2bd 70b5 433d 41b7 14be
00000020: 0aeb ff3d 0170 c73d 857b 80bd 320a 103e
00000030: c9dd f7bd 5474 b2bc de3e 473e a3b8 e63c
00000040: 67af 1abe db5b 3b3e f408 2c3e 5993 093e
00000050: 73ec d13d 5deb 463d 49d9 043e eff8 173e
00000060: 5b63 cc3b 699d 19be 10a1 e1bc 402c da3c
00000070: a15e e4bc 7479 5abe 7be8 b7bd 4735 263e
00000080: 0507 193e f858 d53c 3249 b53d 756f 863d
00000090: b97d 853c 8f55 8fbd 3126 783e 1bdf 6c3d
000000a0: e2c9 0f3d eacc 40bb d898 abbd 0c55 2e3c
000000b0: c392 0d3e df32 663e f9e4 73bd b1b2 21bd
000000c0: fc32 c23d 75a5 503e fd47 c7bc 94e9 8cbd
000000d0: 74dc c3bc d79d 9abd 2a9f 56bd 70f2 123e
000000e0: a58a 3ebe f614 abbd d573 da3d a3e3 9f3d
000000f0: 199e 46bd c660 393d f476 bbb9 ce25 733c
00000100: 43d9 a13e 7c48 873d ea3c 133e 7c20 1f3d
00000110: 708b 33be 78a7 933d 9bd5 363d 5925 c8bd
00000120: 8e91 7e3d 521a f7bc 9702 4dbd b7d4 17be
00000130: a9ac 303d bffd 9d3e 8947 dc3d 8164 9b3d
00000140: 577c 833e 3313 13bd 2264 47be 8c60 e9bb
00000150: b531 7cbe e6e5 393e ef9f 42be a533 253e
00000160: 580c 6d3d b357 54be b7f1 a6bd 80d6 3cbd
00000170: 7757 a23c c498 773e 7dd0 073e 70dd a0bd
00000180: dda7 38be a179 46be c1b5 703d d374 ba3d
00000190: fb0f 1abe a85b f33d 52f0 173e 7d58 1bbe
000001a0: 0f16 df3d 87b1 a93d 02ce d43d 4afd 823d
000001b0: 7a11 323e d86c 603e 7d18 433e 1e4c 0f3c
000001c0: 3346 66be 13d3 973d 59eb fc3d bd2f 2bbd
000001d0: 7a29 c1bd ed42 a13c abcf 643b 8c67 c5bc
000001e0: 8b09 653d 8164 9d3e 87f0 01be 83bf 1e3e
000001f0: c186 6f3e 8796 90bd c14e cb3c bb2e 72bd
00000200: 5bda d9bc 16ad 13bd bf1b 013d eb95 f8bd
00000210: 7dde 923d fc11 16be 5ce3 d63d 833c f4bd
00000220: e504 883d 05f1 efbb 876b 7dbd 0af5 4b3c
00000230: 54cb bdbc 123d 17be 8e58 5b3e 7178 02be
00000240: cfd4 4abb 6f99 1fbe 0149 5abd 0800 8a3d
00000250: 35dc 273e c50b 9f3d 2341 363d 5f3a 7d3e
00000260: a61e 85bd ac34 25be 970e d63c 5afb 263d
00000270: f5bb 3cbd 129b abbc 26d1 4fbd 2136 063e
00000280: b4e7 cd3d 302b 1bbd 3a2b c4bd 59f6 83bd
00000290: 92d7 733d 4035 8ebd ec43 0ebc 7ee0 1dbc
000002a0: 2c55 de3d 0b7a f53c 0a3f e7bd 28ef e4bd
000002b0: 88ec 3ebe 1b7e 803e 6ba9 81bd 2a77 14bc
000002c0: 4b66 1d3e 72f6 c33d f081 083e be43 9f3c
000002d0: 4664 fcbd 2f97 ad3d cff1 a13d ccb4 7f3b
000002e0: ce3e eabd 7500 34be 50e8 603e e280 253d
000002f0: 7540 f63d 3263 36be f129 31bd 094c 22be
00000300: 7bfb c53d 76db e83d cea0 1f3e fe1e 9cbc
00000310: d935 823d a9c6 a9bd 944a 823c 7234 043d
00000320: bdee 6e3e 52a8 773d 84c2 94bd e3ed aebd
00000330: 617a c5bd fa91 2dbd 08fb 02be 2954 b53c
00000340: 8507 f83c b5aa 093e 8c6d a83d 76d6 4fbd
00000350: d2f9 c43d 1bd5 fdbc 8839 1c3d 67cc 223e
00000360: 825e 443e 603d b43d 7e5d 113d 5272 a2bd
00000370: bc3a 9abd 57f4 a0bd 2e30 073e 49df 683e
00000380: f85f f23c 4c05 8a3d b9fd 72be 9d35 e3b9
00000390: c8e7 fd3d 00c4 c8bd cefb 48be 40ad 1e3e
000003a0: 0448 7c3d e9d2 0b3d 43fd 6f3e 21e9 83bd
000003b0: 7ee1 9fbb c7b1 2abd 8724 98bd 9ebb afbb
000003c0: c0b8 6ebc 68ac df3d ea99 893e e312 56bd
000003d0: f37e f83d 3869 84bd ca8c ea3d cefe 03bc
000003e0: 841b 4b3c 4f55 443d b2fb 6bbe 7115 923d
000003f0: 087f 0cbe 3d6c c2bd 1cee 41be 081e c33d
0.018421885 -0.120890446 0.014479791 -0.19423302 0.062374145 -0.079258606 0.047780454 -0.14523031
0.12496002 0.0973816 -0.062735595 0.14066389 -0.12102849 -0.021783985 0.19457576 0.028164214
-0.15105973 0.18296759 0.1680029 0.13435115 0.10250177 0.048564304 0.12973513 0.14841054
0.00623743 -0.15001453 -0.02754262 0.026632428 -0.027877154 -0.21335393 -0.08979889 0.16231261
0.14944084 0.0260434 0.088518515 0.065642275 0.0162953 -0.06998741 0.24233319 0.057829957
0.03510464 -0.0029419013 -0.08378762 0.010640394 0.13825516 0.22480343 -0.059544537 -0.039477054
0.09482381 0.20375617 -0.024326319 -0.06880489 -0.023908831 -0.07549637 -0.052397884 0.14350295
-0.18607576 -0.08353607 0.106666245 0.0780709 -0.048490617 0.045258306 -0.00035756046 0.014840556
0.3161107 0.06605622 0.14378706 0.03884934 -0.1753366 0.072096765 0.044637304 -0.097727485
0.06215053 -0.030163918 -0.050051298 -0.14827238 0.04313341 0.30857655 0.10755832 0.07587529
0.256808 -0.03590698 -0.19471791 -0.007122105 -0.24628337 0.18154106 -0.19006322 0.16132982
0.0578731 -0.2073658 -0.08151572 -0.046103 0.019817097 0.24179369 0.13263126 -0.07854736
-0.18032785 -0.19382335 0.058767084 0.09104314 -0.15045159 0.118827164 0.14837769 -0.15170474
0.10892879 0.08285814 0.10390855 0.06395967 0.1738948 0.2191652 0.1905231 0.008746175
-0.22487716 0.07413306 0.123495765 -0.041793574 -0.09431739 0.019685233 0.0034913819 -0.024097227
0.055917304 0.3074074 -0.1268941 0.15502743 0.23391248 -0.07059961 0.024817826 -0.059126597
-0.026593378 -0.03605374 0.0315206 -0.121379696 0.071713425 -0.14655298 0.10492584 -0.11925604
0.066415586 -0.007322433 -0.061870124 0.012448559 -0.023168243 -0.1476939 0.214205 -0.12741257
-0.0030949598 -0.15585874 -0.05329228 0.06738287 0.16392596 0.07765917 0.044495713 0.24729298
-0.06499986 -0.16133374 0.026130004 0.04076705 -0.046077687 -0.020947967 -0.05073657 0.13106586
0.100539595 -0.037882984 -0.09578557 -0.064434715 0.059531756 -0.069437504 -0.008683186 -0.009636043
0.10856089 0.029965421 -0.112913206 -0.11178428 -0.18644917 0.2509621 -0.06331142 -0.009061614
0.15371053 0.0956849 0.13330817 0.019441482 -0.12323813 0.084761016 0.079074495 0.0039017675
-0.1143776 -0.175783 0.2196362 0.040406115 0.12024013 -0.17811278 -0.04325289 -0.15849318
0.09667107 0.11369984 0.15588686 -0.019057747 0.06357927 -0.082898445 0.015904702 0.03227658
0.23333259 0.060463257 -0.072636634 -0.08541467 -0.096424825 -0.042375542 -0.12791073 0.022134857
0.030277023 0.13444026 0.082240194 -0.050741635 0.09617962 -0.030985406 0.038140804 0.15898286
0.19176677 0.08800769 0.03548955 -0.07931961 -0.07530734 -0.07859104 0.13201973 0.22741427
0.029586777 0.067392915 -0.237296 -0.0004333676 0.123977244 -0.09803009 -0.19627306 0.15495777
0.061592117 0.034136686 0.23436455 -0.0644095 -0.0048791757 -0.041673448 -0.07428842 -0.005362942
-0.014570415 0.10921556 0.2687524 -0.052264106 0.12133589 -0.064653814 0.11452635 -0.008056356
0.012396697 0.04793292 -0.23045233 0.07132996 -0.13720334 -0.09493301 -0.18938488 0.095272124

while/MatMul f4 [256, 3]
00000000: 8290 4f3b 1d08 1cbe 339b 48be 9a1d b03b
00000010: 2d77 eabc be8a a6bd d5a6 81be 34d2 3e3d
00000020: 1c73 b5be 9cb9 bebc 2082 d33c 4c70 bd3e
00000030: c41e a6be dab2 10be 0f5a 0ebf c4ad 88bd
00000040: 89e0 93bd 2d07 5a3d d701 9b3e a454 5d3e
00000050: 03ba e6bd e704 6bbe 3ea4 823e 4259 833e
00000060: 0bd0 b7bd a638 66be ba8f a53d 57e1 9d3e
00000070: fa76 ae3d de8c 03bd ca2d a8bd d0b0 c93d
00000080: ed26 1cbd 0591 843e 2a4a 183c ff5b 303d
00000090: 63b5 90bd b8b2 3cbe d54b a53e d405 0c3e
000000a0: 69aa 3bbe 307e d03b ece7 1cbe f81a 993e
000000b0: f861 c63d 84ba 653e 19ef 783e 623b a2be
000000c0: 63fc 2a3a da4a 31be 8d50 b83e 48f4 49bd
000000d0: 9cee b03d 1097 c6be bc6d 4fbe 8176 d63c
000000e0: 5989 f63d 412a b7be 894c 113d 7af1 f63d
000000f0: df82 003e 3cdc 793e 3423 dc3e f521 ebbd
00000100: d55a 033e 3511 2abe fc05 e8be 94ea f23d
00000110: c93c a4bd f1f6 183d 9a8a c8be 320e 533e
00000120: 0776 b4bd 112f 7ebe 595c 94be 6f76 523e
00000130: be7c 893e e218 c13e ad9e a63e 620b 633e
00000140: 39c0 eabc 4616 c9be 8b14 893e 4d89 05be
00000150: f711 d4be cc2b e63d d1d7 0c3d 98cb e2be
00000160: 38f2 c2be 9752 b6be 112e 89bd d595 a43d
00000170: fad0 2cbd 3aee 223e 22fb 5cbc 6ba3 9b3e
00000180: e5fb d83d e485 433c cd5d 9fbe c4ee a8bd
00000190: deb4 843e 3dbd 173e 1204 b53d 36d5 8ebe
000001a0: 0fe0 443d 1a63 8d3e d1e3 603e ee9b 983e
000001b0: 6c5e a9bd 819d 28bd 5d5e 5f3d 4a2a d4bd
000001c0: fa51 e33e 0ceb 7cbd 5e38 f7bc dfad 2a3e
000001d0: 2831 4abe 2eba 523e 71ac ddbd f223 dcbd
000001e0: e9a6 643e 6eee b13e 8bab 60bd f737 2d3d
000001f0: 574b 463e a3c2 21be 5049 ea3d d6ae 8ebd
00000200: 0ac1 363e 9904 7c3e 4904 583e e4cb d93e
00000210: 6a06 163d 786d 87be 4974 52be 0844 d2bd
00000220: 2085 833e 2e31 0b3e 9087 48be c3f4 4a3e
00000230: 131b 823d 4a62 91be 8586 73be d840 97be
00000240: 9602 063d f5d6 adbd f0fb f13d 3ae5 f1be
00000250: 3d2a 14be 49f3 a6bb c623 ad3d fad0 45be
00000260: 9cc2 e0bd 2c00 dcbe c337 29bd 50e5 03bd
00000270: b189 9bbe 0f0c 2ebe 913d 9cbe efbd 003e
00000280: 843e ddbd bafa 8c3e 7b78 c03d 3b51 78be
00000290: 9b55 d63d 4b52 f03d 2877 27be faf7 813d
000002a0: 6382 6bbe bcc4 b13e 0532 ba3e d77b 873e
000002b0: db79 bfbe e338 5b3d a85e 3ebd 412e 383e
000002c0: 3509 b23e 06e4 803d ac64 d0bd 38cf 243d
000002d0: 3329 17bd d55d d53e 4b5b fa3d 4e66 bd3e
000002e0: b0d8 f63c 48f2 aebd cf0b 93bd 1b32 3abc
000002f0: 4996 c1be 1769 663e 44b4 92be 8852 a53e
00000300: f26e 4dbd cf12 1abc d19f b6bd b915 143d
00000310: 11af 19be db3b cabe 6ea4 833b 1178 1cbe
00000320: 3aa8 1dbd c80a 89bc 155a b6bd 1557 b83e
00000330: 999c 103e f350 483e 3dc1 4dbe 56cf 51be
00000340: 5246 0bbe bdde a43e ddac 3f3e 65cd 09be
00000350: 6750 a83d 4d56 6b3e b887 7f3c 9842 f7bd
00000360: ae1a a63c 7fb2 4fbe fc22 c3be c13e 03be
00000370: 2d75 8fbd 5392 443e 9d9e 6fbe d4e3 c53d
00000380: f8b0 41be 4103 6fbe fe3e 4cbe 5a83 6bbd
00000390: 31c0 4b3d c900 47bd bcad 833e 1f57 9bbd
000003a0: 99b3 99be 2eab 5ebe 2434 85be f7f9 d13d
000003b0: df42 8e3b 76cc afbb f52f 1e3d 004a 9fbe
000003c0: 3d76 48be 230a a9be a241 523e 53a7 00bc
000003d0: 5b3e c9bd 87b9 71be 82b5 d5bd 1adb 9b3d
000003e0: fb08 df3c 3deb 8cbe e146 2d3e a49c 70be
000003f0: c576 9b3d 5bd2 7ebb c164 dbbd ac54 68bc
0.0031671827 -0.1523747 -0.19590454 0.0053746225 -0.02862128 -0.08131932 -0.25322595 0.046587184
-0.35439384 -0.023281865 0.025818884 0.36999738 -0.32445347 -0.14130726 -0.5560617 -0.06673768
-0.07220561 0.0532295 0.3027484 0.21614319 -0.11265948 -0.22951089 0.25515932 0.25654036
-0.08975228 -0.22482547 0.08084054 0.30835983 0.08518787 -0.032116763 -0.082118586 0.098481774
-0.03812306 0.2589189 0.009295026 0.043056484 -0.07065847 -0.18427551 0.32284418 0.13674098
-0.18326725 0.006362699 -0.15322846 0.29903388 0.09686655 0.22434431 0.24309959 -0.3168593
0.0006522594 -0.1731371 0.35998955 -0.04930523 0.08639261 -0.38787127 -0.20256704 0.026179554
0.12037916 -0.35774425 0.03547338 0.12057777 0.12549923 0.24400419 0.42995608 -0.11481086
0.12827618 -0.16608126 -0.45317066 0.118611485 -0.08019406 0.037344877 -0.39168245 0.20610884
-0.088115744 -0.24822642 -0.28976706 0.20552991 0.26852983 0.37714297 0.32542935 0.22172311
-0.028656112 -0.39274806 0.26773486 -0.13040657 -0.41419956 0.11238822 0.034385506 -0.44295955
-0.38075423 -0.35609886 -0.066982396 0.08036391 -0.042191483 0.15911189 -0.013487609 0.30398116
0.1059492 0.0119337775 -0.31126252 -0.08248666 0.2591924 0.14818282 0.08838667 -0.27897042
0.04806524 0.2761467 0.21961905 0.29806465 -0.08269963 -0.041165832 0.05453335 -0.103596285
0.4439848 -0.061747596 -0.030178245 0.16667889 -0.19745314 0.20578834 -0.10823906 -0.107490435
0.22329296 0.3475222 -0.054851096 0.0422897 0.19364677 -0.15796904 0.114397645 -0.06966941
0.17847076 0.24611129 0.21095385 0.4253837 0.03662721 -0.26450706 -0.20552172 -0.10266882
0.25687504 0.1359298 -0.19582963 0.19819932 0.0635282 -0.283953 -0.23781784 -0.2954166
0.03271731 -0.084882654 0.118156314 -0.47245198 -0.14469238 -0.00509492 0.08454089 -0.19318
-0.10974619 -0.4296888 -0.041312944 -0.03220111 -0.30378488 -0.16996787 -0.3051572 0.12572454
-0.108029395 0.2753504 0.0939798 -0.24249737 0.10465547 0.11734446 -0.16354048 0.06346126
-0.22998957 0.3472041 0.36366287 0.2646167 -0.37397656 0.05352105 -0.04647699 0.17986394
0.3477265 0.06293492 -0.10175452 0.04023668 -0.036904525 0.4167315 0.12224444 0.36992115
0.030132622 -0.08542305 -0.07179987 -0.011364485 -0.3780997 0.22501026 -0.28653157 0.3228953
-0.050154634 -0.009403898 -0.08917201 0.03615353 -0.15008189 -0.3949879 0.0040174043 -0.15280177
-0.03849051 -0.016728774 -0.089039005 0.36003938 0.14122237 0.1956213 -0.20093246 -0.20489249
-0.13601044 0.32201186 0.18718286 -0.13457258 0.082184605 0.2298214 0.015596323 -0.120732486
0.020276394 -0.20282935 -0.38112628 -0.12816907 -0.070047714 0.19196443 -0.2340035 0.096625954
-0.18915164 -0.23341085 -0.19945905 -0.057498313 0.049743835 -0.048584733 0.25718486 -0.075849764
-0.30019835 -0.21744987 -0.26016343 0.10252755 0.0043414677 -0.00536495 0.038619954 -0.31111145
-0.19576354 -0.33015546 0.2053285 -0.007852393 -0.098263465 -0.2360593 -0.104350105 0.0761015
0.027225962 -0.27523223 0.1692157 -0.23497254 0.07591013 -0.0038882706 -0.10712577 -0.014180344

sequential/lstm_1/Read_2/ReadVariableOp1 f4 [128]
00000000: 0f63 743e dd87 a9bc f7c2 eb3e 170d 0c3e
00000010: 07db 823e 98c3 553d b8ff df3c b630 a4bd
00000020: aa3d babd 053f a53e e266 4ebd 867f 5abd
00000030: 90af aebd d2fe e43b 4f5e 8dbd 2e2b 8e3e
00000040: 3751 ed3d e6fb 9c3c e7b7 533e f8ce 253e
00000050: 64ef c13d 6803 e6bc e40f 293e 2180 8abd
00000060: 9cfe 873d e0a1 233c 3c6b 4abd 2b36 da3c
00000070: e65c 973e 4dcd 613c fd1f cb3c 2fc3 ce3c
00000080: f8a8 823f b879 873f 473a 3e3f 3c90 843f
00000090: fbf8 913f e260 803f eee1 8b3f efbb 853f
000000a0: 9c1e 7a3f 5b1f 813f 3bba 7d3f 61fe 713f
000000b0: 33d5 853f 829a a23f b54e 813f 9323 893f
000000c0: 089d 883f 0c05 823f da95 803f 8d14 7e3f
000000d0: f003 803f caa8 803f 395e 903f df3f 893f
000000e0: 580f 823f 012a 683f 72c5 843f 9633 8e3f
000000f0: fff8 643f 67ab 823f 08cb 7c3f fc44 763f
00000100: bb29 833d 866d 34bd 1b43 933d 5c55 883a
00000110: a7a6 fd3c 513a 4a3d 05b4 acb9 c674 8f3c
00000120: dbe3 79bd 67b9 ba3c 12f9 3abd c444 3d3c
00000130: f127 86bd 5dac fabc 9b30 163d 4ee1 d93c
00000140: 25df 373d 1ace 16bd 0fd7 ba3c 5584 033d
00000150: 0942 633d ca82 75ba 9401 263e d7d4 3c3d
00000160: dd7e 92bc 487f 69bd 3e54 c73d 0901 a13d
00000170: 5fae 1c3b 7c62 163c da91 f4bc 50b1 8abb
00000180: 58e6 413e c709 4f3d e21f d73e 5b08 da3d
00000190: 94fa 5e3e 63e9 37bc 481e 0dbc fa22 df3c
000001a0: 041b 6fbd 4c18 9c3e 8ca6 aebc 0d78 afbc
000001b0: 125e 6bbb 7a52 373e 3027 69bb d116 763e
000001c0: 8e82 6c3d 862b ab3d fb65 6c3e 19bc 833e
000001d0: c175 753d 5872 16bc 2af7 a53d 2b33 aa3d
000001e0: a9e5 443d 3f85 00bd fd24 d33d 48fc 0b3e
000001f0: 7cd7 9c3e 2427 5d3d 67aa 94bb 3456 67bd
0.23865913 -0.020694667 0.46047184 0.13676868 0.2555773 0.052188486 0.027343616 -0.080171034
-0.09093793 0.32274643 -0.050391085 -0.053344272 -0.0852958 0.0069883848 -0.069027536 0.27767318
0.11587756 0.019163083 0.20675622 0.16192234 0.09469488 -0.028077796 0.16509968 -0.0676272
0.0664036 0.0099873245 -0.049418673 0.026637157 0.29563063 0.013781858 0.024795527 0.025239555
1.0207815 1.0584021 0.74307674 1.0356517 1.1404108 1.0029566 1.0928323 1.0447978
0.97702956 1.0087694 0.9911229 0.94528776 1.0455688 1.2703402 1.0102144 1.0713981
1.0672922 1.015779 1.0045731 0.9925011 1.0001202 1.005151 1.1278754 1.0722617
1.0160933 0.9068909 1.0372756 1.1109493 0.8944244 1.0208558 0.987473 0.9619901
0.06404444 -0.044049762 0.07190534 0.0010401416 0.030963255 0.04937202 -0.00032940521 0.017511737
-0.061008316 0.022793485 -0.04564769 0.0115520395 -0.06550587 -0.030599767 0.036667448 0.026596691
0.04489054 -0.036817648 0.022807626 0.032108624 0.055482898 -0.00093654974 0.1621154 0.046101417
-0.017882759 -0.05700615 0.09732865 0.078615256 0.0023907644 0.009178754 -0.029854704 -0.004232563
0.18935525 0.050546434 0.42016512 0.10646125 0.21775275 -0.011225077 -0.008613177 0.027238358
-0.058375373 0.30487287 -0.02131965 -0.02141955 -0.0035914225 0.17902556 -0.0035576336 0.24032141
0.057741694 0.08357911 0.23085777 0.25729445 0.059926752 -0.009182535 0.081037834 0.08310541
0.048070583 -0.031377073 0.10309789 0.13670456 0.30633152 0.053992406 -0.004536915 -0.056478694

while/MatMul_14 f4 [128, 32]
00000000: ccf6 c63d 015a 2a3d dc17 0c3e c12f aebb
00000010: 8500 393e 0789 82bd d384 543c 37d4 5abd
00000020: 5bc9 80be 3d04 f53d 2306 443e 4c19 0b3d
00000030: 3540 2fbe 9fe1 56be a1a2 343e c999 6d3d
00000040: 4510 503c f321 c7bd 487e 393e 7850 e8be
00000050: d5ce f6bc fa43 6d3c 3035 473e 3063 213d
00000060: ad04 563d 0e41 f3bd 1b2e 033e ae86 053e
00000070: a6a6 b0bd d39e 24bd a5d6 833c c0b2 883d
00000080: db2e f6bd 73b6 87bc bcd4 20bd 6e6d aabd
00000090: 0b79 3bbd 799a 2dbb 9d9a 44bd 2d1b a2be
000000a0: 5126 a73d 07e4 bd3c 2e4e 8ebd ab9b a43c
000000b0: f012 f13d 120b 053e ccf6 6d3c d679 c3bd
000000c0: f9e8 82bd 0d79 8e3c 2f37 91bd eba0 d0ba
000000d0: dc13 0bbe cf44 833d c7e3 85be 0596 0bbd
000000e0: e1cf 023d d6ed 393e a693 f0bd bec4 693d
000000f0: 9fda 4bbe d8fc 893e b432 5ebd 6f28 9fbd
00000100: 280b 5d3e 0ed4 e3bd 1678 1d3e 7447 403d
00000110: 34fe b9be 4250 8e3e bb32 5f3e bdf6 f5bd
00000120: cb90 093e 753a 393e 4ea5 233e b99e 8b3d
00000130: 877b bfbd 8b5d 03be 6986 4d3e 0fba 933d
00000140: da04 d63e b159 073d fbcc fb3d 3a23 0dbd
00000150: 8b9c e63d 3886 49bd 47a8 ea3e fd43 453e
00000160: 7b07 4b3d fe87 ee3c 8712 5dbe 4195 f63e
00000170: 060d 84be 2391 c2bc 17f8 0d3e d654 143f
00000180: 4704 7d3e bc69 2fbe f322 52be e1da 11be
00000190: e641 b7bd de92 d03e f6a8 febd 0e60 8cbd
000001a0: caa5 a4bd dd2a c63e 9ed0 6abd e504 143d
000001b0: 5612 96bd dff6 323e 7cc9 59bd 3ae3 a53d
000001c0: f5b7 68bd 2a96 59bd efbb 9abd 8c38 353e
000001d0: 9b06 9a3e 5e21 593d 72dd 90bd cac7 d33d
000001e0: 9867 64be f646 01be 5682 c9bd 1a82 0d3e
000001f0: 0ed4 e13d e1fc af3c 8bb7 fbbd 27d3 b33d
00000200: 6101 7b3d 87bc 0cbf 4188 8abe 0fe6 92bd
00000210: e775 0cbe b4bb 3d3e 0af6 64bd c751 55bc
00000220: 8147 e2bd b19f 81be 70a8 393e 4f09 5abe
00000230: ca88 41be cf5f 293d 5285 c93e 499e fe3d
00000240: 9ee0 35be c10b a7be 579d d1bd cb08 57be
00000250: a89b e23d ea8e 72be ae5d 0e3a d76c 15be
00000260: 9687 9dbe e9ce 0cbe d732 493e 3989 143e
00000270: acf1 de3e 22c5 0fbe 4dbe a2be 09fa 943b
00000280: bd08 9fbb f587 293e 6393 35bd c65a e43d
00000290: 8b14 663c 25f8 493d cfc0 17bd fb06 653d
000002a0: d3c9 00be 7aec bc3d 4447 90be e6ae aebd
000002b0: 2ae4 3abd 4b44 57be 4a4a 19bd 2e29 46be
000002c0: 7ac1 b53d aa1b 22bc 57f3 aebb 06f4 153d
000002d0: 6e5b c23a 2113 a43d 3e55 b5bd 62a8 173e
000002e0: 46d7 74bd 3e7e 3ebb 8da0 2e3e 3292 ba3e
000002f0: 596e 02bd a7b1 ce3d 6132 013e 23a4 123e
00000300: d65a 0fbd 5d39 903d c621 02bd 8033 323e
00000310: 6a48 c63d d706 08be 203f 2fbe ecf6 393e
00000320: 8d74 263d 85bb 493e 33d0 c7bc 3dba 453d
00000330: 425e f43d a1a8 47bd 9ad9 8fbe 4f7d 9d3e
00000340: 0774 6d3e bdcc d53d cd24 db3d 1dae e5bc
00000350: d356 e23d b1cf 2ebd a19c c13c 266b e23d
00000360: 1990 d4bc a1dc 86bd 4d03 c7bd 80fb 253e
00000370: fdf9 84be 7406 ef3d 921d b93c a045 ac3d
00000380: 10fa 7abd e6e4 23bc bccc 8abe e0c8 86be
00000390: c55e 943e a7d2 32bd d8f5 dd3d d6a1 5abe
000003a0: 7cdb eabc 0589 a4be d5e0 213e 2c8d 343e
000003b0: 095c a6ba 2167 1f3d 971d 25be 8aaf 933d
000003c0: ef6d 5cbd 9082 1b3e 79eb 81bd 2c4d 23bd
000003d0: d373 91be b391 f83d d9ca 72be b1be 89be
000003e0: 0f5f d6bd 7979 033e 2494 09be 1e50 68be
000003f0: 26de 613e 0cb8 fb3c 7964 06be e810 e4bd
0.097150415 0.04158974 0.13680977 -0.0053157513 0.18066604 -0.06373792 0.012971121 -0.05342504
-0.25153622 0.11963699 0.19142966 0.03395967 -0.17114337 -0.20984505 0.17640163 0.05800799
0.012699191 -0.09723272 0.18114579 -0.45373893 -0.030127922 0.014481539 0.19453883 0.039401233
0.052250553 -0.118776426 0.12810557 0.13039657 -0.08625536 -0.04019053 0.016093561 0.06674719
-0.12020656 -0.01656649 -0.03926538 -0.08321653 -0.045769732 -0.0026489778 -0.047999013 -0.31661358
0.08161605 0.023180021 -0.06948505 0.02009376 0.1177119 0.12992504 0.014524173 -0.09544723
-0.06392092 0.017391706 -0.070906036 -0.0015917098 -0.13581795 0.064096086 -0.26150343 -0.034078617
0.03193653 0.18157133 -0.11746912 0.057072394 -0.19907616 0.26950717 -0.054247573 -0.07771384
0.21586287 -0.111244306 0.1537784 0.046943143 -0.36326754 0.27795607 0.21796696 -0.12009952
0.1343414 0.18088706 0.15981027 0.06817383 -0.09349733 -0.12828653 0.20070805 0.07213222
0.41800576 0.03304452 0.12294956 -0.034457423 0.11260327 -0.049200267 0.4583151 0.19264217
0.04956768 0.02911758 -0.21589099 0.48160747 -0.25791186 -0.023750847 0.1386417 0.5794195
0.24708663 -0.17130178 -0.20521145 -0.14243652 -0.08948116 0.4073705 -0.124345705 -0.068542585
-0.08039434 0.38704577 -0.05732786 0.03613748 -0.07327716 0.17476986 -0.053170666 0.08099981
-0.05681606 -0.053121723 -0.07555377 0.17697352 0.30083165 0.053010337 -0.07073487 0.10340841
-0.22305143 -0.12624726 -0.09839313 0.13819161 0.11026774 0.021482887 -0.122908674 0.087805085
0.061280612 -0.5497517 -0.27057078 -0.071727864 -0.13716851 0.18528634 -0.055898704 -0.0130199855
-0.110487945 -0.25317147 0.1813066 -0.21292613 -0.18899837 0.041351136 0.39359528 0.12432534
-0.17761466 -0.32626155 -0.10235088 -0.20999448 0.11064845 -0.2368733 0.00054308295 -0.145923
-0.30767506 -0.13750805 0.196483 0.14505471 0.43543756 -0.14040044 -0.31785813 0.004546408
-0.0048533366 0.1655577 -0.044330012 0.11150126 0.014042984 0.049308915 -0.03704911 0.05591486
-0.1257699 0.09224792 -0.2817937 -0.08529453 -0.04562775 -0.21022145 -0.037424363 -0.19351646
0.08874793 -0.009894291 -0.005339067 0.036609672 0.0014828274 0.08011461 -0.08854149 0.14810327
-0.059775613 -0.0029066945 0.17053433 0.36439663 -0.031843517 0.10092478 0.12616874 0.14320426
-0.034998737 0.07042191 -0.03177049 0.17402458 0.09681781 -0.13283859 -0.17113924 0.181606
0.040638495 0.1970044 -0.02439127 0.048273314 0.11932041 -0.0487448 -0.28095704 0.30759665
0.23188792 0.10439441 0.107003786 -0.028037125 0.11051717 -0.04267854 0.023634257 0.11055593
-0.025947617 -0.065850504 -0.097174264 0.16209221 -0.25971976 0.11671153 0.022597108 0.084117174
-0.061273634 -0.010003304 -0.27109325 -0.2632513 0.28978553 -0.043657925 0.108379066 -0.21350798
-0.028669111 -0.32135788 0.15808423 0.17631978 -0.0012692224 0.03891671 -0.16124569 0.07211216
-0.05381578 0.15186524 -0.06343741 -0.03986852 -0.2840868 0.12137165 -0.23710193 -0.26903298
-0.1046735 0.12839307 -0.13435417 -0.22686812 0.22057399 0.030727409 -0.13124265 -0.11136037

while/MatMul2 f4 [128, 64]
00000000: de59 643e 1839 36be 199a 743e 2071 c43d
00000010: 3fcb da3e 4a94 55be 1aac 41be f43f 273e
00000020: 4925 7a3e 6fc6 b4be b1a5 943b cbd6 3abe
00000030: 7f3f 3bbd aef9 813e 2e0a 55be 57a6 4f3e
00000040: 1e5d 153e c77d 403e 3b91 983d a3da a4be
00000050: 2e40 1bbe 420e 3ebe 0988 76bc 0b83 6cbe
00000060: e6db 683e 58a0 d1bd 3e64 66be 45a1 c3bd
00000070: b9ee 043e fa06 0abf 7034 3b3e 4c36 583e
00000080: a75d 9cbe 5b87 b83d 6032 a9be e5ae 81bd
00000090: 63f0 b4bc b777 bcbd 84eb dfbd 0f40 003e
000000a0: 8d7f d73d 88aa 703d ecf0 3d3e 4aad 0c3e
000000b0: 8379 e9bd a820 fcbd cd82 263e ab47 793e
000000c0: eb58 fdbe ccb0 99be 4837 db3c f9a3 513e
000000d0: e94a 823e e302 b93c 4e78 a23e 3dde 0cbd
000000e0: a00b d2ba 2376 97bd 202e 1bbe eecc 8ebe
000000f0: cbc4 85be 08e5 d53c 3879 27be 45c6 85bd
00000100: 09a1 d53e ecf6 9a3d e4d5 823d 6d20 543d
00000110: 2fd4 733e 6a31 2abe 98ac 053e c22d 603e
00000120: 52a5 c6bd 9dbf a2bd b058 4f3e 5c3b 9cbd
00000130: 0fb7 093e 07f1 00bd a190 993d 6cc3 173e
00000140: efd4 4e3d dadc 50be 1fb9 91bc 9ca8 37be
00000150: 50ed 0dbe 11d3 15be 7b57 a7be b317 293e
00000160: 0bda 50bd 48ff 943d f0b9 013e 205a 88be
00000170: 6539 03be 9365 3fbd 6560 d93d 9c33 243e
00000180: 1255 d13d 715b 4dbe 3f34 333c e8c5 ad3d
00000190: 03d9 5c3d 0434 433e d46f 28be 056f d0bd
000001a0: 009a 153d bcb0 a33e fec6 173d 505e 883e
000001b0: 3f29 efbd e3bb 29bd 5175 50be 3684 8abd
000001c0: 853a 18bd 2748 853a f89e 893e 2053 8fbc
000001d0: db17 f63d 7040 75be ef10 eabd d60c 083e
000001e0: 2f43 753d f062 703e d991 b83e e2ef 2c3d
000001f0: f3c2 213e 29a0 863d 4b01 c9bd 616d 0b3e
00000200: aa47 8c3c c191 a9be b594 96bd cc21 e8bd
00000210: 4416 cbbe 911d e43d 64d8 163e 3190 81be
00000220: 255a 023b 6758 1f3c 5731 afbd a0db adbc
00000230: 91e8 843e afe1 703e 8494 e33d 5b8a b9bd
00000240: d6c1 4bbe e548 00bc 8934 173d 98c5 743c
00000250: e6a4 2e3e 7878 fb3d b73a cb3d b080 a83d
00000260: fe3f 08be 09d1 6fbd feaa 33bd d018 443e
00000270: 2687 3a3d e691 473e dc46 153e c202 37bd
00000280: d753 913e 652e f23c 356c bf3d 6213 4c3e
00000290: b057 edba 73e3 f93e fb9d 0dbe 65a2 18be
000002a0: ae34 02be 47ab 253d 278e b93e 21e4 3d3e
000002b0: ae6f a13e c878 9a3c 995d 8a3d 3ea6 e1be
000002c0: a10b 6abd 6e74 d6bd 1453 7b3e 5c23 6b3c
000002d0: d170 55be dd2a ccbe a92f c43d 01f5 563e
000002e0: 0480 96be e185 6bbc 49d3 803d 5264 8a3c
000002f0: ec2f f53d d78e 8c3e 9686 56be b92a b33e
00000300: 986b d1bd 63a8 72be 3a35 b9bc e9e2 4dbd
00000310: 8b13 b33d 0f08 8f3d d075 a3bc b003 953e
00000320: 4341 a63e 9033 eabe 0e6f d73d 419b 8fbe
00000330: e7d6 cdbd 296e e0bc e03c 94bc 6472 433e
00000340: a655 c03e 08f5 103c f894 00bd e51a 35be
00000350: 5027 1a3e 6c2c 31be ce1a 893c 1bda 79be
00000360: 083c 453e 8226 9c3d 9cbc 92be 46ad 19bd
00000370: a8cf 9f3c 86da 1ebe d37c 903d 28f4 233e
00000380: 947c 66be d3f8 5b3d de76 68be 7b55 97bd
00000390: 2339 c43d c2b8 6d3d a45c f7be 9845 973d
000003a0: af92 49be c1c6 5f3e 03c3 6dbd e260 0a3f
000003b0: 054a 0fbe 7ebe 653c e191 2e3d f64a cabd
000003c0: 397d c4be bdb1 7bbe 1aa7 453e 9eba 6c3d
000003d0: f585 9bbc 14d6 d9bd 352b 5a3b 0045 49be
000003e0: cdf7 1b3d 1d3c 27bd fa75 043d ae7e adbe
000003f0: 8a40 8ebe ecd1 453e 62f8 9bbe c37e 763e
0.22299907 -0.17795217 0.23886909 0.095918894 0.4273319 -0.20857349 -0.18913308 0.1633299
0.24428286 -0.35307643 0.0045363535 -0.18246 -0.04571485 0.25385803 -0.20804664 0.20278297
0.14586303 0.1879798 0.074495755 -0.32198057 -0.15161201 -0.18560126 -0.015047082 -0.23096864
0.22740135 -0.10235661 -0.22499177 -0.09552244 0.1298169 -0.53916895 0.18281722 0.21114463
-0.305402 0.09010192 -0.33046246 -0.063321866 -0.022087282 -0.09202521 -0.10933593 0.12524436
0.10522375 0.05875638 0.18548936 0.1373798 -0.1140013 -0.12310916 0.16260834 0.24343745
-0.49481902 -0.30017698 0.026759759 0.20472707 0.25447777 0.022584384 0.3173241 -0.03439163
-0.0016025193 -0.0739558 -0.15154314 -0.27890724 -0.26126704 0.026110187 -0.16354835 -0.065319575
0.41724423 0.07566628 0.06388453 0.051788736 0.2381141 -0.16620412 0.1305412 0.21892455
-0.09699501 -0.079467036 0.20248675 -0.076285094 0.13448738 -0.03147986 0.07498289 0.14820641
0.050496038 -0.20396748 -0.017788468 -0.17935413 -0.13860059 -0.14631297 -0.3268393 0.16512947
-0.050989192 0.072752535 0.12668586 -0.2663126 -0.12814863 -0.046727728 0.10614089 0.16035312
0.10221304 -0.20054413 0.010937749 0.08485013 0.053917896 0.19062811 -0.16448909 -0.10177425
0.03652382 0.31970775 0.037055008 0.26634455 -0.11677789 -0.04143895 -0.20357253 -0.067634985
-0.037165184 0.0010168598 0.26879096 -0.017495692 0.12016269 -0.23950362 -0.11429011 0.13286147
0.059878524 0.23475242 0.36048773 0.042220958 0.15797023 0.06573517 -0.098147 0.13615943
0.017124016 -0.33119014 -0.07352582 -0.11334571 -0.39665425 0.11138452 0.14730984 -0.25305322
0.0019890156 0.009725667 -0.08554333 -0.02122289 0.25958684 0.23523591 0.111123115 -0.09059592
-0.19898161 -0.007829879 0.036915336 0.014939688 0.17055091 0.12278837 0.09923308 0.0822767
-0.13305661 -0.05854896 -0.043864243 0.1915009 0.045539044 0.1948925 0.14577812 -0.044680364
0.28384277 0.029563138 0.09346811 0.19929269 -0.0018107798 0.48806342 -0.13829796 -0.14905699
-0.12715408 0.040446546 0.36241266 0.18544056 0.31530517 0.018856421 0.067561336 -0.44072145
-0.057139996 -0.10471426 0.2454341 0.014351692 -0.20843817 -0.39876452 0.09579403 0.20991899
-0.29394543 -0.014375181 0.062902994 0.01689354 0.11972031 0.27452728 -0.20949778 0.34993532
-0.102256 -0.23697047 -0.022608388 -0.050265227 0.08743962 0.06983959 -0.019953638 0.29104376
0.32471666 -0.45742464 0.10519229 -0.28048137 -0.10050755 -0.027396278 -0.018095434 0.19086605
0.37565345 0.0088474825 -0.031392068 -0.1768604 0.15054059 -0.17302102 0.016736414 -0.24399607
0.19261181 0.07624532 -0.28659523 -0.037518762 0.019508198 -0.15513048 0.07055058 0.16011107
-0.2250846 0.053704094 -0.22701594 -0.07389351 0.095812105 0.058037527 -0.48312867 0.07386321
-0.19684862 0.21853162 -0.058047306 0.5405408 -0.1399308 0.014022468 0.04261959 -0.09877579
-0.38376787 -0.2457952 0.19302025 0.05779516 -0.018984774 -0.10636535 0.0033289914 -0.19655228
0.038078118 -0.040828813 0.032339074 -0.3388571 -0.27783614 0.1931836 -0.3046294 0.24071793

sequential/lstm_2/Read_2/ReadVariableOp1 f4 [64]
00000000: 4a1c ac3d cf34 c23e 45ec c93e 2edb 4d3e
00000010: 7748 1f3e d2d1 993e 03d6 a23e 388f b93e
00000020: fd96 553e be4b 9f3e 9ec9 0f3e 9782 5b3e
00000030: cebc 553c face be3e 934a 1f3f 7c6e e73e
00000040: 6d5d 853f 331c 853f ed8f 613f 07be 893f
00000050: 1b47 823f 0318 883f bc64 813f c118 763f
00000060: 7b78 883f eb57 833f 9842 893f 5ad0 863f
00000070: ab13 843f 6e58 743f 3458 4d3f b277 753f
00000080: 51bf 4abd 4d50 b1bc 8165 973c 43c2 a3bc
00000090: e406 18b9 5f63 b53b c6bf a03d 4d4d 9bbb
000000a0: 9bd1 a03c 3c64 863c 9628 283c ed0b 813c
000000b0: 3ea7 89bd 50e4 ebba 19ca 153c 6e12 8cbc
000000c0: a02e 013e 65a2 ab3e 9d17 cf3e 7d0c fa3c
000000d0: aeaf 943e 81b6 873e aa27 a73e 63b9 053f
000000e0: e9c6 8d3e f3da d93e ceed 513e 7b2a 973e
000000f0: 23ba aa3c 3234 053f 95aa 353f 236d 0d3f
0.08403833 0.37930915 0.39438072 0.20103142 0.15554987 0.30042893 0.31803903 0.3624208
0.20858379 0.31112474 0.14041755 0.21436535 0.013045503 0.37267286 0.62223166 0.4520148
1.0419136 1.0399231 0.8811024 1.0761117 1.017795 1.0632328 1.0108867 0.9613152
1.0661768 1.0261205 1.0723448 1.0532334 1.0318502 0.95447433 0.8021271 0.95885766
-0.04949886 -0.021644736 0.018481018 -0.019990092 -0.00014498417 0.0055355276 0.07849078 -0.0047394396
0.019631198 0.016405217 0.010263583 0.015752757 -0.06721352 -0.001799712 0.009142422 -0.017098632
0.12615442 0.33522335 0.40447703 0.030523533 0.29040283 0.26506427 0.3264745 0.52236
0.2769082 0.42549857 0.20500872 0.29524598 0.02084071 0.5203277 0.7096341 0.55244654
